…
To enable the following instructions: SSE SSE2 SSE3 SSE4.1 SSE4.2 AVX AVX2 AVX512F AVX512_VNNI FMA, in other operations, rebuild TensorFlow with the appropriate compiler flags.
Model: "model"
__________________________________________________________________________________________________
 Layer (type)                Output Shape                 Param #   Connected to                  
==================================================================================================
 input_1 (InputLayer)        [(None, 128, 128, 3)]        0         []                            
                                                                                                  
 conv2d (Conv2D)             (None, 126, 126, 32)         896       ['input_1[0][0]']             
                                                                                                  
 max_pooling2d (MaxPooling2  (None, 63, 63, 32)           0         ['conv2d[0][0]']              
 D)                                                                                               
                                                                                                  
 conv2d_1 (Conv2D)           (None, 61, 61, 64)           18496     ['max_pooling2d[0][0]']       
                                                                                                  
 max_pooling2d_1 (MaxPoolin  (None, 30, 30, 64)           0         ['conv2d_1[0][0]']            
 g2D)                                                                                             
                                                                                                  
 conv2d_2 (Conv2D)           (None, 28, 28, 128)          73856     ['max_pooling2d_1[0][0]']     
                                                                                                  
 max_pooling2d_2 (MaxPoolin  (None, 14, 14, 128)          0         ['conv2d_2[0][0]']            
 g2D)                                                                                             
                                                                                                  
 flatten (Flatten)           (None, 25088)                0         ['max_pooling2d_2[0][0]']     
                                                                                                  
 dense_4 (Dense)             (None, 128)                  3211392   ['flatten[0][0]']             
                                                                                                  
 dense_5 (Dense)             (None, 80)                   10320     ['dense_4[0][0]']             
                                                                                                  
 dense (Dense)               (None, 128)                  3211392   ['flatten[0][0]']             
                                                                                                  
 dense_6 (Dense)             (None, 64)                   5184      ['dense_5[0][0]']             
                                                                                                  
 dense_1 (Dense)             (None, 64)                   8256      ['dense[0][0]']               
                                                                                                  
 dense_7 (Dense)             (None, 32)                   2080      ['dense_6[0][0]']             
                                                                                                  
 dense_2 (Dense)             (None, 32)                   2080      ['dense_1[0][0]']             
                                                                                                  
 dropout (Dropout)           (None, 32)                   0         ['dense_7[0][0]']             
                                                                                                  
 dense_3 (Dense)             (None, 1)                    33        ['dense_2[0][0]']             
                                                                                                  
 dense_8 (Dense)             (None, 2)                    66        ['dropout[0][0]']             
                                                                                                  
==================================================================================================
Total params: 6544051 (24.96 MB)
Trainable params: 6544051 (24.96 MB)
Non-trainable params: 0 (0.00 Byte)
__________________________________________________________________________________________________
…
