…
 activation='relu')(x) x = keras.layers.MaxPool2D(pool_size=(2,2))(x) x = keras.layers.Dropout(0.25)(x) x = keras.layers.Dense(50, activation='relu')(x) x = keras.layers.Dropout(0.4)(x) outputs = keras.layers.Dense(2, activation='softmax')(x) model = keras.Model(inputs, outputs) Model: &quot;model_1&quot; _________________________________________________________________ Layer (type) Output Shape Param # ================================================================= input_2 (InputLayer) [(None, 64, 64, 1)] 0 _________________________________________________________________ conv2d_2 (Conv2D) (None, 64, 64, 12) 984 _________________________________________________________________ conv2d_3 (Conv2D) (None, 64, 64, 18) 10602 _________________________________________________________________ max_pooling2d_1 (MaxPooling2 (None, 32, 32, 18) 0 _________________________________________________________________ dropout_2 (Dropout) (None, 32, 32, 18) 0 _________________________________________________________________ dense_2 (Dense) (None, 32, 32, 50) 950 _________________________________________________________________ dropout_3 (Dropout) (None, 32, 32, 50) 0 _________________________________________________________________ dense_3 (Dense) (None, 32, 32, 2) 102 ================================================================= Total params: 12,638 Trainable params: 12,638 Non-trainable params: 0 ________________________ model.compile( loss=keras.losses.SparseCategoricalCrossentropy(), optimizer=keras.optimizers.Adam(0.01), metrics=[&quot;acc&quot;], ) model.fit(x_train, y_train, batch_size=32, epochs = 20, validation_split= 0.3, callbacks=[tf.keras.callb
…
